…
as.layers.Activation('relu'))\n","model.add(tf.keras.layers.Dropout(0.4))\n","model.add(tf.keras.layers.Dense(1))\n","model.add(tf.keras.layers.Activation('linear'))          #activation is linear called identity y = x, as linear regression\n","\n","model.summary()"],"execution_count":27,"outputs":[{"output_type":"stream","text":["Model: \"sequential_1\"\n","_________________________________________________________________\n","Layer (type)                 Output Shape              Param #   \n","=================================================================\n","dense_4 (Dense)              (None, 100)               12000     \n","_________________________________________________________________\n","activation_4 (Activation)    (None, 100)               0         \n","_________________________________________________________________\n","dense_5 (Dense)              (None, 100)               10100     \n","_________________________________________________________________\n","activation_5 (Activation)    (None, 100)               0         \n","_________________________________________________________________\n","dropout_2 (Dropout)          (None, 100)               0         \n","_________________________________________________________________\n","dense_6 (Dense)              (None, 100)               10100     \n","_________________________________________________________________\n","activation_6 (Activation)    (None, 100)               0         \n","_________________________________________________________________\n","dropout_3 (Dropout)          (None, 100)               0         \n","_________________________________________________________________\n","dense_7 (Dense)              (None, 1)                 101       \n","_________________________________________________________________\n","activation_7 (Activation)    (None, 1)                 0         \n","=================================================================\n","Total params: 32,301\n","Trainable params: 32,301\n","Non-trainable params: 0\n","_________________________________________________________________\n"],"name":"stdout"}]},{"cell_type":"code","metadata":{"id":"ZmvwAASRfBG-","colab_type":"code","colab":{}},"source":["model.compile(optimizer='sgd',\n","               
…
